discriminator.pth (torch, 61767 bytes, 5 tensors)

conv1.0.weight f4 [16, 1, 5, 5]
0	0x3ec96c3e	0.39340395
1	0x3e4283ea	0.18995634
2	0x3ce56db4	0.028006412
3	0x3f1d4389	0.61431175
4	0x3eb5d270	0.35512114
5	0x3e9e6529	0.30936554
6	0x3f4d95d3	0.8030674
7	0x3e62f097	0.2216209
8	0xbd04bdf6	-0.032407723
9	0x3d9b3f6d	0.07580457
10	0x3e754214	0.23950988
11	0xbf0167c2	-0.50548947
12	0xbe9ceb02	-0.30648047
13	0xbe7e4c05	-0.24833687
14	0xbef509a8	-0.4785893
15	0x3c6f6231	0.014610813
16	0x3de75cb9	0.11296982
17	0xbd9e5d6b	-0.07732662
18	0x3de0cc8e	0.10976516
19	0xbe012cd7	-0.12614761
20	0xbb645ac0	-0.003484413
21	0xbdfe10a9	-0.124055214
22	0xbc85d371	-0.016336175
23	0xbe749157	-0.23883568
24	0xbcb8123b	-0.02246963
25	0xbc67ae9c	-0.014140751
26	0xbeed68d0	-0.46369028
27	0xbe5bfc0c	-0.21482867
28	0x3db8bfd9	0.09020967
29	0xbd54c54c	-0.05194597
30	0xbdf1dc60	-0.11809611
31	0xbeaec5fb	-0.34135422
32	0xbedea89e	-0.4348802
33	0x3f18e915	0.59730655
34	0x3eb033ce	0.34414524
35	0xbd03325c	-0.03203045
36	0xbe766765	-0.2406288
37	0x3eab2167	0.3342392
38	0x3ef8a75c	0.48565185
39	0x3e463eb8	0.19359863
40	0xbe7f3774	-0.24923497
41	0x3ec3ec4b	0.38266215
42	0xbde96e23	-0.1139796
43	0xbe711c36	-0.23545918
44	0xbed547d0	-0.4165635
45	0xbcf94490	-0.030428201
46	0xbc04f526	-0.008115089
47	0x3d7d14e2	0.061787494
48	0x3dbb1db9	0.091365285
49	0xbb5058ce	-0.0031791213
50	0xb9ee143a	-0.00045409967
51	0x3de0db0f	0.10979282
52	0x3e372ef2	0.17889002
53	0xbd974323	-0.07385852
54	0x3bbb2bb9	0.0057119993
55	0xbeb4c96c	-0.35309923
56	0x3f238317	0.638719
57	0x3e9381b7	0.28809902
58	0x3c7c372d	0.015394014
59	0xbb63f3c7	-0.0034782754
60	0x3f0338cf	0.5125856
61	0x3edd9cf4	0.43283808
62	0x3f77ccf3	0.967971
63	0x3da4a32c	0.08038935
64	0x3b9e52e0	0.004831657
65	0xbe7f46c1	-0.24929334
66	0x3ed9d3e0	0.4254446
67	0x3f303968	0.68837595
68	0x3dc68773	0.09693804
69	0xbc20ace3	-0.009806844
70	0xbe5464f3	-0.20741634
71	0xbe1077fd	-0.14108272
72	0xbe5f920d	-0.21833058
73	0x3e118cd6	0.14213881
74	0x3c291221	0.010319264
75	0xba9b228c	-0.0011835857
76	0xbd24c005	-0.040222187
77	0x3d4338b2	0.04766149
78	0x3cd3b5e7	0.025843574
79	0xbd55068a	-0.05200819
80	0x3e543753	0.2072423
81	0x3db053cc	0.08609733
82	0x3dbbb540	0.0916543
83	0x3ccec561	0.025240602
84	0x3d7f5bcf	0.062343415
85	0xbea403bc	-0.320341
86	0xbe55dffb	-0.20886223
87	0xbe093b6e	-0.13401577
88	0x3e2d7a90	0.16941285
89	0xbe323156	-0.17401633
90	0x3d6480df	0.055786964
91	0xbf123fd0	-0.5712862
92	0xbf0da5b6	-0.5533098
93	0x3de7848e	0.1130458
94	0xbdf9bc6e	-0.12194143
95	0x3ed5f047	0.4178488
96	0x3f2e9917	0.68202347
97	0xbe895361	-0.26821426
98	0x3de14fe5	0.11001567
99	0x3e33d036	0.17559895
100	0x3b1c0ad7	0.0023810172
101	0xbce10aac	-0.027470909
102	0xbddd7cdb	-0.1081483
103	0x3e2264f2	0.1585882
104	0xbda5e507	-0.08100324
105	0xbe9f334f	-0.31093833
106	0xbd25a580	-0.040441036
107	0x3e02b0c8	0.12762749
108	0xbe80fc0b	-0.25192294
109	0xbd1eef29	-0.0388023
110	0xbe7bdc40	-0.24595737
111	0x3eb06b9d	0.34457102
112	0xbe2f103c	-0.17096037
113	0xbe5c9209	-0.21540083
114	0x3f574517	0.840898
115	0xbd80a85e	-0.062821135
116	0xbc301aac	-0.010748547
117	0xbea210f7	-0.31653568
118	0xbe9b742e	-0.30362076
119	0x3f08d42b	0.5344874
120	0xbd6b27e9	-0.05741111
121	0xbe925d10	-0.28586626
122	0x3db80969	0.0898617
123	0x38caa19f	9.662215e-05
124	0x3d4bad34	0.049725726
125	0x3e46658a	0.19374672
126	0xbd5df588	-0.054189235
127	0x3ea35358	0.31899524
128	0xbd64f299	-0.05589542
129	0x3dcc3e51	0.099728234
130	0xbe1c3400	-0.15254211
131	0xbd22f599	-0.039785
132	0x3ebb44fe	0.36576074
133	0x3c42f8b0	0.011900112
134	0xbd792f98	-0.060836405
135	0x3daf7f74	0.08569232
136	0x3ea9b27f	0.33143994
137	0xbf08bc41	-0.5341225
138	0x3f067ae4	0.52531266
139	0xbe9c8200	-0.30567932
140	0xbde0df07	-0.10980039
141	0xbe0e644e	-0.1390545
142	0x3da4f1ab	0.08053907
143	0x3eb2fdae	0.34959167
144	0xbd9b461c	-0.07581732
145	0xbd653652	-0.055960007
146	0x3e4dc8db	0.20096152
147	0xbe38dfc2	-0.18054107
148	0xbe303b3e	-0.17210099
149	0x3e6358b7	0.22201811
150	0x3f211879	0.6292797
151	0x3f7c5bff	0.98577875
152	0x3edb9b44	0.42891896
153	0xbb266f83	-0.0025396056
154	0x3a41e83c	0.00073969713
155	0x3f046090	0.5170984
156	0x3f09b638	0.5379367
157	0xbbd0f798	-0.0063771717
158	0xbe029c0e	-0.12754843
159	0xbc3ad5ba	-0.011403495
160	0xbe12c4dc	-0.14332908
161	0x3ea529c8	0.3225844
162	0x3eb807f5	0.3594357
163	0xbe13b04b	-0.14422719
164	0xbda2afad	-0.07943664
165	0x3e35c756	0.17751822
166	0x3d3e7941	0.046502355
167	0xbe3c617f	-0.18396567
168	0x3e5e6cf0	0.21721244
169	0xbd295c41	-0.041347746
170	0xba3cf030	-0.00072074216
171	0xbced1160	-0.02893895
172	0x3e114a25	0.1418844
173	0xbd5e7e29	-0.054319534
174	0xba27ab5f	-0.0006396081
175	0x3a16d638	0.0005753967
176	0xbd00a6f2	-0.03140921
177	0xbd92e991	-0.071734555
178	0x3e0b2f8b	0.13592355
179	0xbd5f0c87	-0.054455306
180	0xbd85ed38	-0.065393865
181	0x3ece4271	0.40285066
182	0x3e5fcb7c	0.21854967
183	0xbc787cbc	-0.015166458
184	0xbe0d2a74	-0.13785726
185	0xbe27dcf0	-0.16392875
186	0xbe81b4eb	-0.25333342
187	0xbe46beba	-0.19408694
188	0x3ea0baa0	0.31392384
189	0x3db68761	0.0891254
190	0x3e24a029	0.16076721
191	0x3e791254	0.24323398
192	0x3f817f8d	1.011705
193	0x3f9f26cd	1.2433716
194	0xbedfc798	-0.43706965
195	0xbe77766d	-0.2416627
196	0x3ee96c2d	0.45590344
197	0x3f516688	0.81797075
198	0x3f032c59	0.51239544
199	0xbe0aa750	-0.13540387
200	0xbdb93ded	-0.090450145
201	0xbd2bf7cc	-0.041984364
202	0x3e614a47	0.22000991
203	0xbd04b969	-0.032403383
204	0xbdddc6a4	-0.10828903
205	0xbdd327d2	-0.103103295
206	0xbe7bd383	-0.24592404
207	0x3dafadc5	0.08578066
208	0x3eb3a6ea	0.35088283
209	0xbdfbdfda	-0.12298556
210	0xbdaab49e	-0.08335231
211	0xbe8e1aee	-0.2775492
212	0xbebe5a8f	-0.37178466
213	0x3e072774	0.13198644
214	0x3e848547	0.25882933
215	0x3d96e2ed	0.073675014
216	0xbdb06a27	-0.08613997
217	0xbdea48b7	-0.114396505
218	0xbd43d50a	-0.04781059
219	0x3d93a324	0.07208851
220	0xbc312466	-0.010811901
221	0xbd617db0	-0.055051506
222	0xbd479382	-0.04872466
223	0x3d24f9cd	0.04027729
224	0xbc9c54af	-0.019083349
225	0xba648535	-0.0008717359
226	0xb949ae47	-0.00019233777
227	0xbc51bfd0	-0.012802079
228	0xbc86b0e5	-0.016441772
229	0xba230b0e	-0.0006219604
230	0xba9f71c4	-0.0012164642
231	0xbec34544	-0.38138783
232	0xbdbe153a	-0.092813924
233	0x3e59330a	0.21210876
234	0xbe33b77d	-0.17550464
235	0xbc48eacb	-0.01226301
236	0xbe42d87f	-0.19027899
237	0x3f3d36c2	0.7391168
238	0xc0be6c8e	-5.9507513
239	0xbb4aefea	-0.0030965754
240	0xbc6f9363	-0.014622542
241	0xbed1c879	-0.4097326
242	0xbb5ada56	-0.0033394299
243	0x3a018700	0.0004941076
244	0xba7945ac	-0.0009508978
245	0xbb2dff56	-0.0026549897
246	0xb9dd5226	-0.0004221361
247	0xbaab0910	-0.0013048965
248	0xba1bdc33	-0.0005945593
249	0xba7cac07	-0.0009638671
250	0x3e94e983	0.29084405
251	0x3f2b5009	0.66919
252	0x3ed62f9a	0.41833192
253	0x3e89b611	0.26896718
254	0xbd94f067	-0.072724156
255	0xbea9b53d	-0.33146086

conv1.0.bias f4 [16]
0	0x3f0dcced	0.55390817
1	0xb89803b0	-7.248612e-05
2	0xb919e8bf	-0.00014677922
3	0x3b713716	0.0036806515
4	0xb9883830	-0.00025981804
5	0x3f0b9d94	0.5453732
6	0x3998f514	0.00029174297
7	0x3911a9d1	0.00013891539
8	0x3e652ab3	0.2237957
9	0x3925d416	0.00015814634
10	0x3981408f	0.00024652897
11	0x3a359a1a	0.0006927565
12	0xbdcddc88	-0.100518286
13	0x3aaa7d46	0.0013007305
14	0x3dc6abae	0.09700714
15	0xbf215afd	-0.6302946

conv2.0.weight f4 [32, 16, 5, 5]
0	0x3d92d23d	0.07169006
1	0x3d1e2b77	0.03861567
2	0x3d02fcb4	0.031979278
3	0x3c593365	0.013256882
4	0x3d3ad10d	0.045609523
5	0xbc3ccd64	-0.011523578
6	0xbd41acba	-0.047283866
7	0xbd1efbb1	-0.03881425
8	0xbd8b7a14	-0.06810394
9	0xbd8dde61	-0.06927181
10	0xbdceafe2	-0.10092141
11	0xbe6ba577	-0.23012339
12	0xbe8314ca	-0.25601798
13	0xbe5b5899	-0.21420516
14	0xbe530170	-0.20606017
15	0xbcbd1bcb	-0.023084542
16	0x3c1ef972	0.009703027
17	0x3d8db77f	0.06919765
18	0x3d4cff1c	0.05004798
19	0xbbdd02cb	-0.0067447177
20	0xbc72dd5e	-0.014823286
21	0xbd1d544c	-0.03841047
22	0x3c16689a	0.009180212
23	0xbcf149ba	-0.0294541
24	0x3c5e9cb5	0.013587167
25	0x3e207ccc	0.15672606
26	0x3e5ecf47	0.21758758
27	0xbb929ef2	-0.004474514
28	0x3dbb5898	0.09147757
29	0x3e051911	0.12997843
30	0xbe965c26	-0.2936718
31	0xbeb34bdd	-0.35018817
32	0xbf10593e	-0.5638617
33	0xbe829682	-0.25505453
34	0xbe0bc069	-0.13647617
35	0xbd40a61f	-0.047033425
36	0xbcf8d593	-0.030375278
37	0xbdecb718	-0.1155836
38	0x3dc6eb10	0.09712803
39	0x3df7dde8	0.12102872
40	0x3df5328c	0.11972532
41	0x3da9240a	0.08258827
42	0x3c421242	0.011845173
43	0x3da46a96	0.08028142
44	0x3e3643c8	0.17799294
45	0xbe0d66e7	-0.13808785
46	0xbd975732	-0.07389678
47	0xbdcbc405	-0.09949497
48	0xbdfdfe1e	-0.12401985
49	0xbd5bc311	-0.053652827
50	0x3cc38416	0.023866694
51	0x3d33dce8	0.043911844
52	0x3d663ea1	0.05621207
53	0xbd86774b	-0.06565722
54	0x3a957348	0.0011402154
55	0xbdf90787	-0.12159639
56	0xbe92c282	-0.28664023
57	0xbeac0bcd	-0.33602753
58	0xbe834d54	-0.25644934
59	0xbe054d91	-0.1301787
60	0xbd1f3dbe	-0.03887724
61	0xbd83d523	-0.06437137
62	0x3d7640df	0.06012046
63	0x3d795f16	0.060881697
64	0x3e9250fe	0.28577417
65	0x3c80f4cd	0.01574173
66	0xbd164915	-0.03669079
67	0x3ca8f9fe	0.020627018
68	0x3b315d40	0.0027063638
69	0x3d9d7715	0.07688729
70	0xbb05c482	-0.0020411317
71	0xbd7d4ec6	-0.061842702
72	0x3c3be4e8	0.01146815
73	0x3cbb8f1a	0.022895385
74	0xbcaa263c	-0.020770185
75	0x3c104b88	0.008807071
76	0xbe1b394e	-0.15158579
77	0xbe2fa615	-0.17153199
78	0xbd827ee7	-0.06371861
79	0xbde36ffe	-0.11105345
80	0xbd646433	-0.05575962
81	0xbd86c36d	-0.06580243
82	0xbdd64375	-0.10462085
83	0xbe0467ce	-0.12930223
84	0xbde27e9c	-0.11059305
85	0x3dc0433f	0.09387826
86	0x3dae1283	0.084996246
87	0x3d179a87	0.037012603
88	0x3db26832	0.0871128
89	0x3da8147f	0.08207034
90	0xbddefce1	-0.108880766
91	0xbe34dce8	-0.17662394
92	0xbe659fb4	-0.22424203
93	0xbd62e286	-0.05539181
94	0xbdc2917c	-0.09500405
95	0xbe098742	-0.13430503
96	0xbe5c361e	-0.21505019
97	0xbe5e2b19	-0.21696128
98	0xbdbd2e65	-0.09237365
99	0x3cb41ea0	0.02198726
100	0x3d5384b8	0.051640242
101	0x3ca7bc2a	0.020475466
102	0xbe2c4043	-0.16821389
103	0xbc50c8e6	-0.01274321
104	0xbc320b3b	-0.010866935
105	0xbdc23567	-0.09482842
106	0xbe5850f6	-0.21124634
107	0xbec13e10	-0.37742662
108	0xbd40166d	-0.046896387
109	0x3ce1da9a	0.027570058
110	0x3e591f6b	0.21203391
111	0x3b9a5eb1	0.004710995
112	0x3ce99820	0.028514922
113	0x3e238b75	0.15971167
114	0x3e8c8eff	0.27452847
115	0x3d478ac0	0.048716307
116	0x3dae0bcb	0.08498343
117	0x3bcc8b0d	0.006242162
118	0x3e0a8601	0.13527681
119	0x3e4c73c2	0.19966033
120	0xbe48a365	-0.1959358
121	0xbd350707	-0.044196155
122	0xbda1bfc7	-0.07897907
123	0x3d570d55	0.05250295
124	0x3d669472	0.056293912
125	0xbc0af208	-0.008480556
126	0xbd39d373	-0.04536767
127	0xbbe87a16	-0.007094632
128	0xbb1d32a9	-0.0023986495
129	0x3c42639b	0.011864568
130	0xbe04240b	-0.12904374
131	0xbe082404	-0.13294989
132	0xbe2f6790	-0.1712935
133	0xbe0ca7d1	-0.13735892
134	0xbe0c1b4d	-0.1368229
135	0xbe1ce595	-0.15321954
136	0xbe20e0c7	-0.15710746
137	0xbdc29f5f	-0.09503054
138	0xbdb2daf5	-0.08733169
139	0xbdbce20c	-0.092228025
140	0xbd9892ef	-0.074499
141	0xbd5b8311	-0.05359179
142	0xbd84cb2c	-0.064840645
143	0xbd4089db	-0.04700647
144	0xbd484b4d	-0.048899937
145	0xbd8ac69f	-0.06776165
146	0xbd87224a	-0.06598337
147	0xbbcb4346	-0.006203088
148	0xbd3df847	-0.046379354
149	0xbd8206a3	-0.06348922
150	0xb9fdb14b	-0.00048388014
151	0xbca23767	-0.019801809
152	0x3c82246e	0.015886512
153	0xbae7a975	-0.0017674403
154	0xbc3b005c	-0.01141366
155	0x3da418c7	0.080125384
156	0x3c91bde3	0.01779074
157	0xbd508a6f	-0.05091327
158	0xbcf96cfc	-0.030447476
159	0xbdbe3733	-0.09287872
160	0x3af6602c	0.0018796972
161	0xbe0bec48	-0.13664353
162	0xbe3796b7	-0.17928587
163	0xbdc8982b	-0.09794649
164	0x3b79ed31	0.0038135762
165	0x3c81870c	0.015811466
166	0xbd558152	-0.052125283
167	0xbd6cda53	-0.057825398
168	0x3d49fe2b	0.04931466
169	0x3da3d66e	0.079998836
170	0x3d440f00	0.047865868
171	0xbc06aae5	-0.008219455
172	0xbd44dd32	-0.04806251
173	0xbc8448f5	-0.01614807
174	0x3bbe3f6c	0.0058059003
175	0xbd012015	-0.031524736
176	0xbdcfab3f	-0.101400845
177	0xbd90ea42	-0.07075931
178	0xbe17e4bf	-0.14833353
179	0x3a10add1	0.0005519065
180	0xbe06e2d1	-0.13172461
181	0xbe01858f	-0.12648605
182	0xbd9caf5b	-0.07650634
183	0xbd47ce90	-0.048780978
184	0x3d64d26a	0.05586473
185	0x3b156c51	0.0022800157
186	0x3bcb6532	0.006207132
187	0x3cd40f62	0.025886241
188	0x3d72c9f0	0.059274614
189	0x3d8d20d7	0.06891029
190	0xbc84c212	-0.016205821
191	0xbd38c911	-0.045113627
192	0xbcd86bcf	-0.026418595
193	0x3bc42176	0.005985434
194	0x3c2df3a2	0.010617169
195	0x3bdb42ec	0.0066913273
196	0xbd179d51	-0.037015263
197	0xbd5ae3ac	-0.05343978
198	0xbd27ab84	-0.040935054
199	0x3c172653	0.009225446
200	0xbdd775c9	-0.105205126
201	0xbd6fece5	-0.05857553
202	0xbe130c9f	-0.14360283
203	0xbdcd2abe	-0.10017918
204	0x3e0cd72c	0.13753957
205	0xbe542cc3	-0.207202
206	0xbe17cd07	-0.14824305
207	0xbe26d84c	-0.16293448
208	0xbe375aca	-0.17905727
209	0xbe480913	-0.19534712
210	0xbe46c48e	-0.19410917
211	0xbe825bc6	-0.25460643
212	0xbe968af8	-0.294029
213	0xbdefbef4	-0.11706343
214	0xbd7ddf32	-0.061980434
215	0xbd7dd21a	-0.061967947
216	0xbdda8eda	-0.10671778
217	0xbdcaed82	-0.09908582
218	0xbdc7b400	-0.09751129
219	0x3dc2c766	0.095106885
220	0xbdf318b8	-0.11869949
221	0xbd2b1d8c	-0.041776225
222	0x3d4be8ea	0.04978267
223	0x3ae9305b	0.00177909
224	0x3d9dfe66	0.07714538
225	0x3eb07c5f	0.34469888
226	0x3e108244	0.14112192
227	0x3e4ab477	0.19795404
228	0x3e4c8b35	0.19974978
229	0x3ec13960	0.37739086
230	0x3cf8b8d8	0.030361578
231	0xbea9b475	-0.3314549
232	0xbed42b57	-0.41439316
233	0xbf0514de	-0.51984966
234	0xbc39c05f	-0.011337369
235	0xbe8a4a9a	-0.2701004
236	0xbec04b31	-0.37557366
237	0xbf012361	-0.5044461
238	0xbf1bf423	-0.609194
239	0xbe8bb939	-0.2728975
240	0xbecf802e	-0.4052748
241	0xbeed4db4	-0.46348345
242	0xbe54e57f	-0.20790671
243	0xbe2c3104	-0.16815573
244	0xbddcece9	-0.107873745
245	0xbe85157b	-0.2599295
246	0xbe63d8c1	-0.22250654
247	0xbe18f07a	-0.14935485
248	0x3cc5e76b	0.0241582
249	0x3e323f03	0.1740685
250	0xbea2f0b7	-0.31824276
251	0x3c91013b	0.017700782
252	0x3dac185f	0.08403086
253	0x3e67d27b	0.22638886
254	0x3e909610	0.2823949
255	0x3d1192d1	0.035540406

conv2.0.bias f4 [32]
0	0xbecff273	-0.40614662
1	0xbeaccff9	-0.3375242
2	0xbc4f5eec	-0.0126569085
3	0xbe8943ae	-0.26809448
4	0xbe323675	-0.17403586
5	0xbd188b7b	-0.037242394
6	0xbe992365	-0.29909816
7	0xbdf7caf1	-0.12099255
8	0x3ce727c6	0.028217208
9	0xbeda3b9c	-0.42623603
10	0xbe3c7bc6	-0.18406591
11	0x3cee9ef2	0.029128525
12	0xbe2d0325	-0.16895731
13	0x3dd84d95	0.105616726
14	0xbe13f321	-0.14448215
15	0x3e193323	0.14960913
16	0xbd8ea7fc	-0.06965634
17	0xbe2ca156	-0.1685842
18	0xbe8087f2	-0.25103718
19	0xbea58ac7	-0.3233244
20	0xbeb6a0f2	-0.35669667
21	0x3e18e45b	0.1493086
22	0xbe79f4ad	-0.24409743
23	0xbed3cb1c	-0.41365898
24	0xbe30d58f	-0.17268966
25	0xbe1819a7	-0.14853536
26	0x3de9731e	0.1139891
27	0x3d845960	0.064623594
28	0xbeb5990d	-0.3546833
29	0xbe09ca1c	-0.13456005
30	0xbe04b490	-0.12959504
31	0xbe88e01b	-0.2673348

out.0.weight f4 [1, 1568]
0	0x3dc3abab	0.095542274
1	0x3e8e21c0	0.27760124
2	0x3edd2b2c	0.43197
3	0x3f079240	0.52957535
4	0x3f08e5fe	0.5347594
5	0x3f056b95	0.5211728
6	0x3e339505	0.17537315
7	0xbbc19d77	-0.005908664
8	0x3d9c4925	0.07631139
9	0x3e08ebd4	0.13371211
10	0xbcc32e70	-0.023825854
11	0xbc64588c	-0.013937127
12	0x3d27290b	0.040810626
13	0xbd0681ef	-0.032838758
14	0x3e836c20	0.2566843
15	0xbe0d7084	-0.13812453
16	0x3e185f02	0.14879993
17	0x3f43c2f2	0.7646934
18	0x3f4dc7a9	0.8038278
19	0x3ebf6a3c	0.37385738
20	0x3df2219e	0.11822818
21	0x3eb9e401	0.36306766
22	0x3e3571e6	0.1771923
23	0x3d4f8075	0.050659616
24	0x3e6cb404	0.23115546
25	0x3e8e7fc2	0.27831846
26	0xbb3589c6	-0.0027700528
27	0x3d1d45a5	0.038396496
28	0xbdb28160	-0.087160826
29	0x3d92d809	0.07170112
30	0x3cef0cfa	0.029180992
31	0xbd87aa68	-0.06624299
32	0x3c199869	0.009374716
33	0xbe30bff2	-0.17260721
34	0x3eccc4fc	0.39994037
35	0x3ede8f34	0.4346863
36	0x3f15b0c7	0.58472866
37	0x3e8ea6c9	0.27861622
38	0x3a1491d5	0.00056674826
39	0x3c616922	0.013757976
40	0xbd011107	-0.03151038
41	0x3bed6efc	0.0072458964
42	0x3e22f3d4	0.15913326
43	0xbe35c5ec	-0.17751282
44	0xbdf20b03	-0.118185066
45	0xbcbfcb5d	-0.0234124
46	0xbde2da86	-0.11076836
47	0x3e6be9c4	0.23038393
48	0xbd126065	-0.03573646
49	0xbe1ae53b	-0.15126507
50	0x3d0a0246	0.033693574
51	0xbd3e21cc	-0.04641895
52	0x3e4f1ca8	0.20225775
53	0x3f2ab125	0.6667655
54	0xbe1a2e0b	-0.15056626
55	0x3e937202	0.2879792
56	0xbd09a00d	-0.033599902
57	0x3e707a95	0.23484261
58	0x3e93a275	0.28834882
59	0x3eb609bc	0.35554302
60	0x3ec6a6c7	0.38799116
61	0xbdcbebd2	-0.099570885
62	0xbcbf3478	-0.023340449
63	0xbd108a3a	-0.035288073
64	0x3ea8a7d6	0.3294055
65	0xbdb703b3	-0.089362524
66	0x3e246a1d	0.16056104
67	0x3d365c1d	0.04452144
68	0xbe5f6179	-0.21814527
69	0xbe35eb4b	-0.17765538
70	0xbc7ba677	-0.0153595125
71	0x3eb98484	0.36233914
72	0x3e1dcb01	0.15409471
73	0x3e013438	0.12617576
74	0x3f145a62	0.57950413
75	0x3ea867d0	0.32891703
76	0xbe490e4e	-0.19634363
77	0x3db68ddf	0.089137785
78	0x3e37015f	0.17871617
79	0x3e9b475f	0.3032789
80	0x3c009c0a	0.007849703
81	0x3e110f4c	0.14165992
82	0x3f565a50	0.83731556
83	0x3e9f27e2	0.31085116
84	0xbdab3ae7	-0.08360844
85	0x3dd7641c	0.10517141
86	0xbd8f9331	-0.070104964
87	0xbe0cd916	-0.13754687
88	0x3dcc9973	0.099902056
89	0x3f1f37fa	0.6219479
90	0x3e0c5d04	0.13707358
91	0x3e54adaf	0.2076938
92	0x3ea847bf	0.32867238
93	0x3e7b12ff	0.24518965
94	0xbe3c4a21	-0.18387653
95	0xbe806e6c	-0.25084245
96	0x3e0c0dc3	0.13677125
97	0x3dc9b5c3	0.098491214
98	0x3f3cb0a4	0.7370703
99	0x3e668bde	0.22514293
100	0x3e7e6144	0.24841791
101	0xbc0b46b8	-0.008500747
102	0xbc28c82f	-0.010301634
103	0xbd166d10	-0.036725104
104	0x3ebc9ae9	0.36836937
105	0x3f14e2ef	0.58158773
106	0x3e3c6776	0.18398842
107	0x3e85da56	0.2614314
108	0x3c73ba95	0.014876028
109	0x3d40ff93	0.047118735
110	0x3c729219	0.01480534
111	0x3dc6eb31	0.09712828
112	0x3e48f0d5	0.1962312
113	0x3cf81d3d	0.03028738
114	0x3f7a1657	0.9769034
115	0x3f0e5fe4	0.5561507
116	0x3f2061cc	0.62649226
117	0x3e8a478e	0.27007717
118	0x3ecca5c0	0.39970207
119	0x3ec6fbea	0.3886407
120	0x3e8739ce	0.2641129
121	0x3f172703	0.590439
122	0x3c8180b5	0.015808443
123	0x3d0b51fe	0.03401374
124	0x3e7d7b0b	0.24753968
125	0x3f13685e	0.57581127
126	0x3e3ea87d	0.1861896
127	0x3f2593b4	0.646785
128	0x3ee20318	0.44142985
129	0x3e9936ad	0.29924527
130	0x3eb54a13	0.35408077
131	0x3e8eafb4	0.27868426
132	0x3f0ade2c	0.5424526
133	0xbcebd759	-0.02878921
134	0x3c81fb7d	0.01586699
135	0x3dcf61d1	0.10126079
136	0x3d57bab4	0.05266829
137	0x3c8d9a3e	0.017285462
138	0x3e8939cd	0.2680191
139	0x3ed1c0fe	0.40967554
140	0xbd80c3c4	-0.06287339
141	0xbd220db4	-0.03956385
142	0x3e008424	0.12550408
143	0xbe409186	-0.18805513
144	0x3ea7e23f	0.327898
145	0x3ef4383a	0.47699147
146	0x3d7fd024	0.062454358
147	0x3dce42c1	0.10071326
148	0x3da43608	0.08018118
149	0x3e37eb2b	0.17960803
150	0xbc6179d4	-0.013761956
151	0xbc9bf6ed	-0.019038642
152	0xbc3882e0	-0.011261672
153	0xbbca0124	-0.0061646868
154	0x3e438922	0.19095281
155	0x3e2070c2	0.15668014
156	0x3d0df9b1	0.034661952
157	0x3e40515a	0.18781033
158	0x3e8a6012	0.2702642
159	0x3dfa718b	0.12228688
160	0x3c8e3e76	0.017363768
161	0x3e52305c	0.2052626
162	0x3d8e72ed	0.06955514
163	0x3e75e7a4	0.24014145
164	0x3d8e286d	0.06941304
165	0x3db17497	0.08664816
166	0x3db4bc66	0.08824997
167	0xbd06465e	-0.03278195
168	0xbd21e976	-0.039529286
169	0xbe68df49	-0.22741427
170	0xbbc46071	-0.005992942
171	0x3d44cf45	0.04804923
172	0x3e0bf6e0	0.13668394
173	0x3e82c19f	0.25538346
174	0x3e6822d1	0.22669531
175	0x3f0a2869	0.5396791
176	0x3ef4df8d	0.47826806
177	0xbdc2d185	-0.09512619
178	0x3db69b45	0.08916334
179	0x3e60eeae	0.21966049
180	0x3e5827e8	0.21108973
181	0x3deee54f	0.11664831
182	0xbd6cb421	-0.05778897
183	0x3e02df54	0.12780505
184	0x3f5f3c7e	0.8720168
185	0x3e4d86bb	0.20070927
186	0xbdfd84fa	-0.12378879
187	0xbe2d7cbe	-0.16942117
188	0x3c8b66f1	0.01701686
189	0xbe09300e	-0.13397238
190	0xbd423caf	-0.047421154
191	0xbd5dab62	-0.05411852
192	0x3df806b9	0.12110657
193	0xbd83dced	-0.064386226
194	0x3dd9bbc3	0.10631516
195	0x3d02056a	0.031743445
196	0x3f0b200f	0.5434579
197	0x3f3933b2	0.72344506
198	0x3e79bda9	0.24388756
199	0x3db628fd	0.08894537
200	0x3e291cd2	0.165149
201	0x3f39d5f6	0.72592103
202	0x3f217eb4	0.6308396
203	0x3f59b880	0.8504715
204	0x3da15ed3	0.078794144
205	0x3d240af8	0.040049523
206	0x3e4b397f	0.19846152
207	0x3e9fa217	0.31178352
208	0x3ee50d49	0.44736698
209	0x3d80721c	0.06271765
210	0x3eb9f7ef	0.3632197
211	0x3da5dfbd	0.08099315
212	0x3e565bae	0.2093341
213	0x3e327cd9	0.17430438
214	0x3e88876d	0.26665822
215	0x3e964d1d	0.29355708
216	0x3e9191a7	0.28431436
217	0x3e6dfc01	0.23240663
218	0xbdab32c4	-0.08359292
219	0x3e0ad9cc	0.13559645
220	0x3e1b60c1	0.15173627
221	0x3ea4436a	0.32082683
222	0x3f737c33	0.9511139
223	0x3f2d2d11	0.6764689
224	0x3e99435d	0.29934207
225	0x3e9a4dd0	0.3013749
226	0x3eea202d	0.45727673
227	0x3f1e8a29	0.61929566
228	0x3f0647e5	0.5245345
229	0x3c5361d9	0.012901747
230	0x3daadd10	0.083429456
231	0x3dbc028d	0.09180174
232	0x3eea0fe1	0.4571524
233	0x3ea05f5a	0.31322747
234	0x3ec9a3de	0.39382833
235	0x3eb28b48	0.34871888
236	0xbd4e353d	-0.05034374
237	0xbd6eb405	-0.05827715
238	0x3e56460e	0.20925161
239	0xbb89d937	-0.004206802
240	0x3ebde9e1	0.37092498
241	0x3f1e25a3	0.6177618
242	0x3e88aea5	0.26695743
243	0x3d914593	0.07093348
244	0x3db204a5	0.08692292
245	0xbcd31414	-0.02576641
246	0x3b9c2ce6	0.0047660945
247	0xbcc74b7a	-0.024327982
248	0xbd93acc8	-0.0721069
249	0x3bbca2c4	0.005756708
250	0xbdf47ce2	-0.11937882
251	0x3e3054f3	0.17219906
252	0x38c97a33	9.607188e-05
253	0x3ad92dbf	0.001656942
254	0xbd8f9216	-0.070102856
255	0x3e0a17dc	0.13485664
