model.pth (torch, 117767 bytes, 6 tensors)

conv1.0.weight f4 [16, 1, 5, 5]
000000 53 dc 55 bd bc 6e 54 bd 2d c0 fe 3a b6 6d d8 bd
       -0.05221207 -0.051863417 0.0019435935 -0.10567801
000010 38 62 f4 3d 5a 72 3d 3e 0f 45 55 bd db 87 24 bc
       0.11932796 0.18500653 -0.052067813 -0.010042156
000020 7d ef 27 be b5 0f 54 be c4 5a 16 3b 46 35 ec 3d
       -0.16399951 -0.20709117 0.0022942284 0.115335986
000030 39 4f 9a 3d 52 44 e4 3a 83 77 e7 bc db 44 89 3d
       0.07534642 0.001741538 -0.02825523 0.06702586
000040 cb 0a 4d 3e 26 39 25 bd 9a 9b b4 bc 10 1f c0 bd
       0.20023648 -0.040337704 -0.022046853 -0.09380925
000050 41 25 d2 bd 70 2e e4 3d a2 eb e5 3d 3d cb e1 3d
       -0.10261012 0.1114167 0.11226584 0.11025093
000060 f3 c1 78 3c 80 56 6e 3e 0c 07 42 3e 26 53 a4 bd
       0.01518296 0.23275185 0.18948 -0.08023672
000070 be da d1 3d e9 19 84 3e 2d 46 79 3e 6a a2 3f 3e
       0.102468 0.25801018 0.24343176 0.187143
000080 47 76 03 3e f3 05 3d 3e 59 c2 69 bd df dc 57 be
       0.12838088 0.184593 -0.05707011 -0.2108035
000090 de c0 80 bd 02 d5 45 be 10 33 b4 bd ed 48 a0 3d
       -0.062867865 -0.19319537 -0.08798802 0.078264095
0000a0 ee 8b 32 be dc 9e a8 3d 38 eb 37 be b6 f4 09 be
       -0.17436191 0.08233425 -0.17960823 -0.13472256
0000b0 0a 21 77 bd 01 b8 66 be dd 0c 41 bd 69 b6 fa bd
       -0.060334243 -0.2253113 -0.047131408 -0.12241823
0000c0 f8 6b f8 bc ff 25 c6 b8 3d 4b 85 3e af f5 dc bc
       -0.030324921 -9.448453e-05 0.26033965 -0.02697262
0000d0 b1 f7 22 be 5e d6 30 be 41 20 3e 3e ee 8c 5a 3e
       -0.159148 -0.17269275 0.18566991 0.21342823
0000e0 e4 16 2f 3e 4e 9d 10 be 5a 74 8e 3c a4 87 06 be
       0.17098576 -0.14122507 0.017389465 -0.1313768
0000f0 9a 56 89 3e 2c d1 6b 3e df b2 82 3e 78 a7 91 3e
       0.26823884 0.23029011 0.25527093 0.2844808
000100 1d 23 8c 3d 0c 4b a6 3d 7d e7 6f 3e af 92 a4 3e
       0.06842635 0.08119783 0.2342815 0.3214316
000110 18 02 d0 3c 4d e1 2a bc 07 7a b1 3c 79 9f a8 3b
       0.025391623 -0.010429692 0.021664632 0.0051459637
000120 21 65 8e 3e db e9 f3 3d 14 88 9c 3d d0 09 1d 3d
       0.2781153 0.11909839 0.07643142 0.038339436
000130 d5 29 f8 bd e8 57 75 3e 29 e8 73 3e bc 60 da 3d
       -0.12117354 0.23959315 0.23819031 0.10662982
000140 5a e4 88 3e 16 36 c1 3e 05 f7 7f 3e 33 3a a9 3e
       0.26736718 0.37736577 0.24996574 0.33052215
000150 0e 84 b1 3e db d6 5d 3d 20 cd 95 3e 59 8b b5 3e
       0.34671062 0.05415998 0.2925806 0.35457876
000160 1c df 1d 3e 4a ac aa 3e 5e b8 31 3e 91 c5 99 bd
       0.1541714 0.3333457 0.17355487 -0.07508386
000170 86 5d 65 3d 28 79 79 3e e0 10 89 3e 6f 22 da bd
       0.055997394 0.24362624 0.26770687 -0.10651099
000180 90 e4 14 3e a4 57 08 3e 9a a8 fa bb c8 29 18 3e
       0.14540315 0.13314682 -0.0076494934 0.14859688
000190 42 84 a3 bd 6a 70 21 bc 21 4b 7e 3e 5d c5 ab 3e
       -0.079842106 -0.009853462 0.24833347 0.33549014
0001a0 45 37 57 3c 3b 66 89 bb e6 12 3e 3e 56 47 31 3e
       0.013135736 -0.004193095 0.18561897 0.17312369
0001b0 52 30 c9 3e a5 ef fb 3d 8e cf f6 3d 54 1f cf 3e
       0.39294678 0.12301568 0.12051307 0.4045359
0001c0 00 1a 81 3e d4 2c 96 3e c6 33 94 3e 40 77 81 3e
       0.2521515 0.29331076 0.2894575 0.25286293
0001d0 a7 ba 8c 3e e1 35 7d bd 82 92 26 3b b9 62 1d be
       0.27486154 -0.06181896 0.0025416915 -0.15369691
0001e0 20 b9 fa 3d 3b f1 8e bd 8e d6 50 3e 77 b6 7d bd
       0.12242341 -0.06979605 0.20394346 -0.06194159
0001f0 8a e6 85 3d 6d 4b 00 bc b8 b1 0f bd 77 9b c5 3d
       0.065381125 -0.007830483 -0.035081595 0.09648793
000200 98 7e bf 3d ac de b9 3d 49 77 38 3d 6d e9 df bd
       0.09350318 0.090756744 0.045035634 -0.10933194
000210 85 40 06 3e aa 49 c9 3d 94 e8 06 3d 05 1b 22 3e
       0.1311055 0.098285034 0.032936648 0.1583062
000220 50 69 78 3e da 0a 4a 3d 44 a1 84 3e f9 33 51 3e
       0.24258924 0.049326755 0.25904286 0.20429982
000230 22 24 f2 3c fe 25 bf 3d c1 fa 1d 3c 10 40 aa 3e
       0.029558245 0.09333418 0.009642304 0.33252
000240 84 b5 4e 3d 3c 04 19 be 88 83 7b 3e cc 8b 98 3e
       0.050466076 -0.14943022 0.24561894 0.29794157
000250 58 01 1f 3e 14 ad 43 3e ab a9 57 3e 78 ff 39 bc
       0.15527856 0.19108993 0.21060817 -0.011352412
000260 d6 20 2e 3d a3 50 2f bd 2f 37 43 be a6 53 b4 3d
       0.042511784 -0.04280151 -0.1906402 0.08805017
000270 7f 77 d4 3d 74 b4 5f bd 3f aa 34 be c4 da 24 3e
       0.103743546 -0.054615453 -0.17643069 0.16099077
000280 60 b2 05 3e b1 a8 e2 bc f5 0f 5c 3d e0 df ea 3d
       0.13056326 -0.027668329 0.053726155 0.11468482
000290 1f 06 b4 3b 3a e4 e8 bc e7 64 40 be 73 17 4b bd
       0.0054938938 -0.02842914 -0.18788491 -0.04958291
0002a0 64 3b 4f 3e bf 1e 51 bd ef 79 ec 3c 32 27 5e bd
       0.202375 -0.051054712 0.028866736 -0.0542366
0002b0 f4 fc f9 bd c2 70 34 be 3d 2b 92 bd 5e 0d 6a bc
       -0.1220645 -0.17621139 -0.07137153 -0.014285414
0002c0 05 08 2e be a7 90 10 3e 2a 0a 37 3e bc ca 5a 3e
       -0.16995247 0.1411768 0.17874971 0.213664
0002d0 dc 42 ba bd b6 09 29 be 19 c2 a6 bb a6 fe 7f 3e
       -0.09094784 -0.1650761 -0.005089056 0.24999484
0002e0 3c 49 6c 3e 94 0b 10 bd a9 89 bb bd 58 eb 49 bd
       0.23074812 -0.03516729 -0.09157116 -0.049296707
0002f0 4a 22 71 3e 93 ee 71 3e ac df 9c bd d9 b1 57 3c
       0.23548236 0.23626165 -0.076598495 0.013164961
000300 57 06 69 bd f2 aa 3f 3e ff ea 5e 3e 47 37 65 be
       -0.05689081 0.18717554 0.21769331 -0.22384368
000310 bc e0 64 bd 32 e6 7d 3e b5 f0 03 3e d9 0a 7b 3e
       -0.055878386 0.24794844 0.12884791 0.24515857
000320 d5 f9 f7 3b b8 86 99 3c 97 80 46 3e 38 03 04 3c
       0.007567624 0.018740997 0.1938499 0.008057408
000330 81 04 df bd 35 dd 91 bd eb 1b 92 3e eb 00 92 3e
       -0.10889531 -0.0712227 0.28536925 0.28516325
000340 b8 dc 24 bd 9f 35 b3 3d e7 47 2e 3e 1a ab 94 3d
       -0.040249556 0.08750462 0.17019616 0.072591975
000350 65 e8 53 bb 77 34 24 be 08 21 8a bd 4a 0b 64 3e
       -0.0032334563 -0.16035639 -0.067445815 0.22269931
000360 b6 1f ab 3e 69 9a 0c 3e d9 0b c2 3c 96 60 3d be
       0.3342263 0.13730778 0.02368729 -0.18493876
000370 a6 18 a6 3e 35 7c 8a 3e 21 b9 c7 bd 90 84 25 be
       0.3244068 0.27047887 -0.097521074 -0.1616385
000380 36 81 17 bd 55 17 b3 3c 9d 88 82 3d 99 95 db bd
       -0.03698846 0.021861712 0.06373713 -0.10721893
000390 5c 79 1f bd 81 74 5f 3d 38 b1 0d 3e 88 d4 c6 3d
       -0.038934097 0.054554466 0.13837135 0.09708506
0003a0 11 7b 0f 3e 29 c4 1a 3e 77 03 8d 3d c5 7a cb 3d
       0.1401179 0.15113892 0.068854265 0.09935526
0003b0 70 ca 27 3e 9c 93 0c bd 0a 91 be 3b 2a ea 24 3e
       0.16385818 -0.03432046 0.00581563 0.16104952
0003c0 1d 82 2f be 3e 9a 1a 3e bb 08 ee bd e3 91 b6 3d
       -0.17139478 0.15097901 -0.11622759 0.089145444
0003d0 0f f5 26 bd 67 05 be bd 29 07 f8 3d 25 3c 95 bd
       -0.04076105 -0.09278374 0.12110741 -0.07286862
0003e0 0b b8 f9 bd 6a 2b ca 3d 55 55 f0 3d 3c e4 ed 3d
       -0.121933065 0.09871562 0.11735026 0.11615798
0003f0 f4 e0 57 3e 5a d5 8d 3e 17 98 7d 3e cb 67 4e 3c
       0.21081907 0.27701837 0.24765049 0.012597988

conv1.0.bias f4 [16]
000000 f4 26 59 bd d9 31 c1 3d bb 60 35 37 73 bc ee 3c
       -0.053015664 0.09433336 1.08109625e-05 0.029142594
000010 1b 29 00 3d b8 ea 23 b9 49 7a 3b 3c f6 74 9c bd
       0.0312892 -0.00015632331 0.011442729 -0.07639496
000020 c1 8a 39 3e 85 13 38 3e fd 13 76 bd e3 f6 87 3c
       0.18119337 0.17976196 -0.060077656 0.016597217
000030 39 d1 cc bc 77 b9 9e 3d 9d 5d 0c be 43 32 2f bd
       -0.025002109 0.07750218 -0.13707586 -0.042772543

conv2.0.weight f4 [32, 16, 5, 5]
000000 26 9f 2a 3c 1f c6 fb 3c 7e d9 92 bc 55 11 8c bb
       0.0104139205 0.03073412 -0.017925974 -0.004274527
000010 07 48 4a bd 7c f8 5d 3c f6 99 53 3d e1 3a cb bc
       -0.049385097 0.013548013 0.0516605 -0.02480835
000020 38 9b 22 bd 9c f7 98 bc 01 42 e7 bb 04 59 df 3c
       -0.03969881 -0.018672757 -0.007057429 0.027264126
000030 67 5e 69 bc f0 bd 58 bc 4c 01 9c 3c 73 74 21 bd
       -0.014243699 -0.013228878 0.019043587 -0.039417695
000040 9b 41 2d bd 4e 9c c9 3c 63 02 ab bc 54 5d 32 bd
       -0.042298894 0.024610665 -0.020875162 -0.043546036
000050 67 59 dc 3c 46 3e 05 bd 75 9e e2 3c 7a 05 f5 3c
       0.0268981 -0.03253009 0.027663449 0.029909838
000060 d8 6c 1b bc f3 95 33 bd d5 e9 84 3c ea 88 64 bc
       -0.0094864 -0.043844175 0.016224781 -0.0139486585
000070 dd 32 5c bb 39 6c 1b 3d 35 c0 b5 ba 42 b1 a5 bc
       -0.0033599653 0.037945006 -0.0013866486 -0.020226125
000080 2b b1 97 bc b2 9c 27 bd 74 f4 5b bd 82 79 9c bc
       -0.018517097 -0.04092092 -0.053699926 -0.019100908
000090 64 bb f9 3b ef b8 81 3d c0 99 dd 3c 52 24 1f bc
       0.0076212157 0.063341014 0.027050853 -0.009713249
0000a0 b7 4b 3f bb a0 4f 1f 3c 31 55 7c 3d 85 19 71 3d
       -0.0029189417 0.009723574 0.061604682 0.058862228
0000b0 59 2c 26 3d 22 d0 14 3d f6 18 bf 3c 18 e6 18 3d
       0.040569637 0.036331303 0.023327332 0.03732881
0000c0 2a 35 1e bd 03 a6 58 bc 1b c3 73 3d 2d 07 d9 3c
       -0.03862492 -0.013223174 0.05951224 0.02649268
0000d0 d4 76 62 bd 67 39 69 bd 56 17 ad bc 16 40 81 3d
       -0.055289105 -0.05693951 -0.021129292 0.063110515
0000e0 26 bc b2 3d a8 c9 af 3d 91 39 8e bc dc 86 4c bc
       0.08727293 0.08583385 -0.017361434 -0.012483325
0000f0 77 7f e8 3c 15 85 b4 3a b6 85 98 3d b6 68 61 3a
       0.028381092 0.0013772572 0.07447378 0.0008598672
000100 b6 71 05 3d 22 46 d0 3b 2b 14 8b bc 34 e2 5f 3d
       0.032579146 0.0063560167 -0.01697739 0.054659083
000110 0c 93 d0 bc 51 80 d9 bc 8b 22 00 bd 9a 37 8a bd
       -0.025460742 -0.026550444 -0.031282943 -0.067488864
000120 d9 98 53 bd c4 a1 fe 3c ad 6b 0c bd 40 4c 12 3c
       -0.05165944 0.031082995 -0.034282375 0.008929312
000130 84 3c 21 3c 11 ed 86 bd 55 b3 01 bd b5 09 74 bc
       0.009841088 -0.065881856 -0.031665165 -0.014894892
000140 f3 cb 11 3d ff 36 58 3d 1b 3f 9d 3c 1b 72 d9 3c
       0.03559489 0.052786823 0.01919513 0.026543668
000150 be 2b 11 3d 2e c3 00 3d f2 c0 ac 3d 43 17 cb 3d
       0.035442106 0.031436138 0.08435239 0.09916546
000160 ca d7 ab 3d 57 14 ce 3c 05 70 05 3d 13 00 93 3d
       0.08390768 0.025156183 0.032577533 0.071777485
000170 14 07 95 3d c9 fd 15 3c 49 8c 81 3c 05 56 58 bd
       0.07276741 0.009154745 0.015813963 -0.05281641
000180 dc f7 7b bd 68 87 3d 3d 95 13 a1 bb 59 f9 4f 3b
       -0.061515674 0.04627171 -0.0049156644 0.0031734316
000190 17 bc 12 bd c7 45 d4 bc 31 c3 16 bd 0e c0 5c bd
       -0.035823908 -0.025912179 -0.036807243 -0.053894095
0001a0 50 a3 1a 3c 65 7a 5e 3d 4a cb b8 bc 4c 82 95 3c
       0.009438351 0.054315943 -0.022557873 0.018250607
0001b0 cc 99 d0 bc 24 f2 2d 3c e6 af 24 3d 74 e2 5d 3d
       -0.025463961 0.010616813 0.040206812 0.05417104
0001c0 a3 33 94 3d 2b bb 9a bc 03 c9 23 3c e4 c2 ca 3b
       0.072364114 -0.018888077 0.009996655 0.0061877836
0001d0 d6 6e 93 3c 4f 2c 3c 3d b8 66 82 3a cd 42 7c 39
       0.017997187 0.045940693 0.0009948825 0.00024057478
0001e0 b7 3c 98 bd a0 02 43 bd 76 67 93 bc a0 86 54 3c
       -0.074334554 -0.047609925 -0.01799367 0.01297155
0001f0 31 fc 9f 3b 6a 97 29 3d 0b bd 33 bd 3e e3 93 bc
       0.0048823585 0.041404165 -0.043881457 -0.018052693
000200 42 a1 ab bb 0c 9c 1a bd 3f 74 85 3d bb e8 7d 3d
       -0.0052377293 -0.037746474 0.06516313 0.061989527
000210 0b 64 c7 3c 5c f6 ed bc 1e e1 fd 3b eb 22 49 3c
       0.024339696 -0.029048137 0.0077477833 0.0122763915
000220 26 d9 6f 3d ce 6e ec 3c ed be 29 3d 61 da 72 bc
       0.0585567 0.02886143 0.041441847 -0.014822573
000230 e1 9b 6a bd 1a 4e 38 bd 8d 4e 29 3d bf 0d 6d 3c
       -0.057277564 -0.04499636 0.041334677 0.014468609
000240 b2 03 e8 bc 18 01 72 bd f7 65 b1 3c 87 dc 24 bd
       -0.028322075 -0.059083074 0.021655066 -0.040249374
000250 2c b1 1b 3d 82 34 c0 3c e5 ef 24 bb d4 f8 4f bd
       0.03801076 0.023462538 -0.0025167402 -0.05077441
000260 38 6f 63 bc 81 31 63 bd eb 38 f4 bc 3f 3e e5 bc
       -0.013881497 -0.055467132 -0.029812297 -0.027983783
000270 80 89 6b 3a c7 46 7b 3c 7a 2e 3d bd a9 37 a8 bc
       0.00089850277 0.015336699 -0.0461869 -0.020534353
000280 af 73 0f bc c0 73 36 bc cc bc 33 bd 8c 42 ce ba
       -0.008755608 -0.011135995 -0.043881223 -0.0015736385
000290 53 89 30 bd 1c fd d4 3c f8 c4 cd 3b 64 08 29 bd
       -0.043099713 0.025999598 0.006279584 -0.041267768
0002a0 5e f5 37 bd 4d 76 bb 3c 10 c7 4a bd 14 c7 d4 bb
       -0.044911735 0.022883559 -0.049506247 -0.0064934585
0002b0 45 4b 4c 3c e6 3d 03 3d 1d 23 2f bd 94 40 e3 3b
       0.0124691175 0.032041453 -0.042758096 0.0069351885
0002c0 77 36 c4 3c 3b 69 3b bd 4e d8 72 bc ed b2 06 bb
       0.023951752 -0.045754652 -0.014822079 -0.0020553425
0002d0 9b 04 e0 bc e9 68 b8 3c 15 e6 93 bc a4 a9 a1 3c
       -0.027345946 0.022510963 -0.018054048 0.019734211
0002e0 79 48 2a 3c 6c ce a7 bc b5 d6 ad bc d5 17 a1 bc
       0.010393255 -0.020484172 -0.021220544 -0.019664684
0002f0 2d f1 f7 bc d4 44 29 bd 8f 78 3a 3d 99 ce 64 bc
       -0.030266369 -0.041325405 0.04552513 -0.013965272
000300 dd 7c 67 3d 2f ca fa bc 04 fb 7d 3c 45 6d 99 bc
       0.056515563 -0.030613987 0.015501741 -0.018728862
000310 82 99 30 bd 89 2b f8 bc c6 84 63 3d 68 f9 de bc
       -0.043115146 -0.030294197 0.055546544 -0.027218536
000320 01 5e 9e bc c8 ee 12 3d ea 14 26 bd 0b a9 fe bc
       -0.019331934 0.03587225 -0.04054729 -0.031086465
000330 0a fe 13 bb 9b f1 0b 3d d4 12 69 bc 53 ba 01 bd
       -0.002258184 0.03416596 -0.01422568 -0.031671833
000340 3b f5 12 3d bf 15 1b bd 47 a9 7e 3c 6b 4a cd 3b
       0.0358784 -0.037862536 0.015543289 0.006264975
000350 c8 bf d8 bc f6 4b b0 3c 72 e9 27 3d 7d 66 99 bc
       -0.026458636 0.021520596 0.040994115 -0.018725628
000360 97 c1 54 bd c2 20 43 bd 89 77 17 3d 98 7a 6a 3d
       -0.051942434 -0.047638662 0.036979232 0.05724582
000370 1e 3f ae 3c 6c eb 4a bd c6 a4 fd bc 8a 15 08 3d
       0.021270331 -0.049540922 -0.03096236 0.033223666
000380 0d 6d a0 39 c0 ca 50 bd 82 80 e9 bb 5a 3d 51 bd
       0.00030598827 -0.050974607 -0.007125915 -0.0510839
000390 f9 26 11 3d ba cf a9 bb 5d 1b 4d 3d 62 3b 10 bc
       0.035437558 -0.0051822336 0.050074924 -0.0088032205
0003a0 11 38 dd 3c be 36 c6 bc a6 df 10 bd 86 25 73 bb
       0.027004274 -0.024196025 -0.035369538 -0.0037101223
0003b0 5a ba 12 3d 62 e3 8c 3d b8 2d 8e bb 9a 0f 40 3d
       0.03582225 0.06879307 -0.004338946 0.04688988
0003c0 6b 9a 06 bd 86 8a 0c 3d da 87 0e bc f5 e1 10 3d
       -0.03286211 0.034311794 -0.008699382 0.03537174
0003d0 89 ca 20 3d 16 fe bc 3c 86 d2 93 3c e6 0d 0a bd
       0.039255653 0.023070376 0.018044721 -0.03370466
0003e0 79 2d 2f bd 56 7c 41 3d a4 36 cb bc 6a c5 14 bd
       -0.042767975 0.047237717 -0.024806328 -0.03632108
0003f0 e1 29 1f bd 6c b7 2d 3d ec 1f 3e 3c 11 c0 52 bd
       -0.0388583 0.042411253 0.01160429 -0.0514527

conv2.0.bias f4 [32]
000000 bf 89 bf bc 63 b8 1d 3b 97 42 c8 bc 6f 9e 64 bd
       -0.023381112 0.0024066202 -0.024445815 -0.055815157
000010 b3 a4 cc bb f0 2b 6c bd 13 0e 1b 3d 9b 3b 29 bd
       -0.0062452196 -0.05765909 0.03785522 -0.04131661
000020 fe ac 11 bc 77 c6 49 bd e7 b7 85 3d 17 a6 88 3d
       -0.008891342 -0.049261536 0.06529217 0.06672304
000030 39 87 4a bd 3a 06 27 3d 42 8f ab 3c 02 b3 14 bd
       -0.049445365 0.040777422 0.020942334 -0.036303528
000040 92 c0 5b 3c ce 65 ff 3c 1e 4b 20 3b b9 93 a0 3a
       0.013412612 0.031176474 0.0024458836 0.0012251056
000050 93 93 bf 3b 4a 3d 8f bb e6 a4 a1 bc e4 65 86 3c
       0.0058464496 -0.00437132 -0.01973195 0.016406007
000060 3f b6 98 bc 9f 52 f4 3b 0c 47 88 3d 2b bc b4 bc
       -0.01864159 0.0074561383 0.06654176 -0.022062382
000070 b8 0f 56 bd b9 86 23 bd 29 9b 05 bd ca a4 c2 bc
       -0.052261084 -0.039923403 -0.032618675 -0.023760218

out.weight f4 [10, 1568]
000000 85 1e d5 bc 95 aa 3d bb 92 63 0c 3c d2 50 67 bc
       -0.02601553 -0.0028940786 0.008568661 -0.01411839
000010 15 e3 b1 bc 95 14 1c 3c 08 c8 06 3c 8b 7c 05 3c
       -0.021714726 0.0095263915 0.008226402 0.008147369
000020 9b 51 a5 3b 11 2d 32 bc 73 c7 ee bb 84 12 3c 3d
       0.0050451285 -0.0108750025 -0.00728696 0.045916095
000030 86 dd 9a bb 5c 2c 15 bc 3f 3f ae bc cc 78 0d 3c
       -0.0047261147 -0.009104814 -0.021270392 0.008634757
000040 89 7e d3 bc 9f 56 8e bc 82 07 2d 3d 50 c3 13 3d
       -0.025817173 -0.017375289 0.042243488 0.036074936
000050 33 ad 3f 3b 4c 6a bc bc ba 4f 19 3c b2 9e 30 bc
       0.0029247522 -0.022999905 0.009357387 -0.010780023
000060 01 f4 88 bc bc c1 ee bc 54 4a a7 bc da ec 3e 3c
       -0.016717913 -0.029145114 -0.020421185 0.0116531495
000070 13 73 f8 bc 17 ff 04 bd 4c 22 ba ba 5a cd 84 3c
       -0.03032831 -0.032469835 -0.0014200895 0.0162112
000080 60 79 27 bd cc e4 e4 3b cc cc ab 3c 81 92 4a bc
       -0.040887237 0.0069852825 0.020971678 -0.012364031
000090 6e 17 96 bc 65 93 9b 3c c0 65 89 3c 26 be d5 bb
       -0.018321719 0.018991182 0.016772151 -0.0065229116
0000a0 b6 f7 9f bc b2 5a e0 3b e6 77 b3 bc e4 c8 7d 3c
       -0.019527297 0.006846749 -0.021907758 0.015489791
0000b0 60 cc 50 bc dd 79 ff 3c 86 1b 3d bc 2c 24 8a bb
       -0.012744039 0.031186039 -0.011542207 -0.004215738
0000c0 e2 19 c8 bc ea d6 c9 bc 44 5d 32 bc 88 b4 b5 3b
       -0.024426404 -0.024638612 -0.010886494 0.0055452026
0000d0 bc 7a ed ba c1 a0 b6 3c 18 96 00 3c f1 73 d9 ba
       -0.0018118243 0.02229345 0.007848285 -0.0016590339
0000e0 ac 24 0a bc d8 8e b2 bc 8f 1a 82 3c 36 0b c5 bb
       -0.008431595 -0.021796629 0.015881805 -0.0060132993
0000f0 b6 f3 a0 3c 63 1c b8 bc 4a de ed b9 a6 ac 46 bc
       0.01964746 -0.022474473 -0.0004536978 -0.0121261235
000100 58 6f 8f bc 7b 1c 40 bc 8e ab 8b bc bc ef 8a bc
       -0.017509148 -0.01172554 -0.017049577 -0.016960017
000110 a1 dc 35 3c 11 78 c8 3c ab 5e c7 3a 77 f0 a1 bb
       0.011099965 0.024471315 0.0015210708 -0.0049419957
000120 5d 1b b9 3b 78 7d 06 3c e5 07 bd 3c 87 cc 34 3d
       0.005649014 0.008208625 0.023075053 0.044140365
000130 4d a0 81 3c 43 7e b3 bc 23 7d a4 3c ab 1b 81 3c
       0.015823508 -0.021910792 0.020079201 0.015760263
000140 38 79 ee bc 34 61 13 bc 7f df e2 3c 35 40 e7 3b
       -0.029110536 -0.008995343 0.027694462 0.0070572146
000150 33 74 b4 bc fe 45 6b 3c 55 68 a6 bc 9f 7e 87 bc
       -0.022028064 0.014359949 -0.020313421 -0.01653987
000160 7b 7c 3a bc 53 29 b9 bc 2d aa a9 3a 8b d0 05 3c
       -0.0113822175 -0.022602713 0.0012944393 0.008167396
000170 d6 88 aa bc d1 c5 1e 3c 26 35 58 bc 78 84 8d bc
       -0.020817202 0.009690718 -0.013196265 -0.01727508
000180 78 4a b2 bc 4c f8 10 39 23 6f cc 3c fe db 37 ba
       -0.021764025 0.00013825408 0.024955338 -0.00070136774
000190 6e 5d a2 3a 3b 82 7f bb 6a ba 44 3c a4 22 eb bb
       0.0012387463 -0.0038987536 0.012007335 -0.0071757603
0001a0 d6 29 c4 bc 3b a4 38 39 3d 88 9f 3a f2 5a 81 bc
       -0.02394573 0.00017608788 0.001217134 -0.015790436
0001b0 0d 67 d2 3c f4 c1 57 bc 6a 14 6b bc 52 76 4d 3c
       0.025683904 -0.013168801 -0.014348129 0.012540417
0001c0 ea 4e a8 3c 88 19 87 3c 45 8b 5c 3c b7 4a ea bc
       0.020545442 0.016491666 0.013460939 -0.02860008
0001d0 45 b0 d0 3b ca 5b 4f bc 5e 7c 8c bb bd 39 08 bc
       0.006368669 -0.012656162 -0.0042872867 -0.008314547
0001e0 85 0b ae bc 81 a0 09 bc 18 44 cf bc 0d 1b 47 bd
       -0.021245727 -0.0084000835 -0.025301024 -0.048609782
0001f0 1e 6b ef bc 66 a6 07 3b 40 e4 06 3a d3 38 db 3a
       -0.029225882 0.0020698546 0.0005145706 0.0016725309
000200 17 fd 84 3c 9f cc db bb b9 a2 70 3c c6 53 92 3c
       0.016233964 -0.0067077423 0.014687234 0.017862212
000210 bd f0 9f bc 97 b6 13 bb bc e3 8d bc bd 55 bb 3b
       -0.019523973 -0.0022539252 -0.017320506 0.005717008
000220 27 a4 88 bc a3 c9 c6 bc 18 7c b4 ba 06 95 88 3c
       -0.016679836 -0.02426607 -0.0013769893 0.016672622
000230 2d 23 48 bc 6b ca f3 bb cf 02 23 3c 24 85 78 bc
       -0.012215418 -0.0074399016 0.0099494 -0.015168462
000240 70 5d 2e bc 1a df a1 3c 9e 31 ab 3b 2d f0 0f 3b
       -0.010642394 0.019759703 0.0052244207 0.0021963224
000250 dc f9 de bc d2 40 83 bc 2b 38 8a bc 4d b3 96 3b
       -0.027218752 -0.01602212 -0.016872486 0.004599011
000260 3b 02 ce bc 7d 4c 2f bc 1f da d7 bc aa 60 95 ba
       -0.025147548 -0.010699389 -0.026349125 -0.0011396606
000270 c6 ca 58 bc 0c 9b b8 3c 3d ee 33 3d 0e b3 da 3c
       -0.013231939 0.02253487 0.043928374 0.026696708
000280 33 fd c1 3c 07 ac 79 bb 6d 77 a0 bc df 60 89 bb
       0.023680305 -0.003809692 -0.019588197 -0.004192456
000290 95 c2 01 bd a7 95 60 3c 50 d4 4b 3d 75 61 00 3d
       -0.03167971 0.013707555 0.049763024 0.031342942
0002a0 93 3e 05 bc f2 ea 6f bc 27 88 eb 3c a1 0a 02 bd
       -0.008132595 -0.014643418 0.028751446 -0.031748418
0002b0 61 bd c0 bd cc 71 fd 3c 23 84 3a 3d 25 b6 14 bc
       -0.09411121 0.030938052 0.04553617 -0.00907663
0002c0 49 dd a9 bb d8 0e 9e 3d 9c d1 c0 bc 8d f9 2b bd
       -0.00518385 0.07717675 -0.02353745 -0.041986037
0002d0 55 7c 1d 3d bc 02 7c 3b 02 ea a5 bc 7e 75 34 bc
       0.03844865 0.0038453778 -0.020253185 -0.01101434
0002e0 67 b6 21 3d ee 36 3e 3c bc d7 92 3b 6d a9 27 bd
       0.039480593 0.011609776 0.004481284 -0.04093306
0002f0 d8 22 ea bc 48 7a ae b9 82 3f 67 bb 0a 47 c6 bc
       -0.028581068 -0.00033278973 -0.0035285656 -0.024203796
000300 b7 51 82 bc e1 68 ed bc b1 ca d5 bc 9f d2 3b 39
       -0.015908105 -0.028980674 -0.026097627 0.00017912172
000310 fa cc 85 3c 9e a9 dd 3a c4 16 8b 3c 71 07 8e 3c
       0.016333092 0.0016911512 0.016978629 0.017337533
000320 69 0e 8d 3c 70 36 89 3c 6e 53 b4 3b 35 78 5a 3c
       0.017218785 0.01674959 0.0055031097 0.013334324
000330 44 06 2a bb 6c 9e 9d bc da 47 55 3c 12 eb b0 3b
       -0.0025943676 -0.01924058 0.013017619 0.0053991163
000340 ef b1 75 3a 9e d3 44 bc 91 e9 4f 3c 01 2b 19 3c
       0.00093725225 -0.012013344 0.012689964 0.009348632
000350 87 ea 95 bc 8f 9e b6 bb ae 63 34 bc 21 10 f7 3a
       -0.018300308 -0.005573101 -0.011010094 0.0018849411
000360 b4 9f 5b 3c 76 6b d1 3c 31 7c b1 bc 41 b0 83 3c
       0.013404775 0.025563937 -0.021665664 0.016075255
000370 40 e7 69 3c f0 05 34 bc e9 96 83 bc d3 cf 97 bc
       0.014276326 -0.010987744 -0.01606317 -0.018531715
000380 58 53 ea 3b 91 2f ca 3c 54 3a 52 3c 56 a9 03 bb
       0.0071510486 0.024680885 0.012831289 -0.0020089946
000390 92 c2 5c bc 2c 7a ba bc c0 35 60 3b f2 ab 04 bc
       -0.013474124 -0.022763334 0.0034211725 -0.008097636
0003a0 61 79 97 3c 3d a9 95 3c ac c4 1e 3a 0e e1 78 3c
       0.018490495 0.018269176 0.0006056528 0.015190376
0003b0 38 3f 18 bc ca be 80 bc 7a d0 30 3c 18 7e 1c 3c
       -0.009292416 -0.015715975 0.010791892 0.0095515475
0003c0 9d ae 75 bc 29 a7 34 bc c2 76 82 bc 8f ae c6 bc
       -0.014995244 -0.011026182 -0.015925769 -0.024253158
0003d0 14 0b b7 bb d5 90 93 bb d3 e9 5d bc 27 91 b3 bb
       -0.0055860374 -0.0045033493 -0.013544518 -0.00547995
0003e0 ad 46 2b bb 5b a0 ff bc 7e e6 ae bb b9 69 99 bc
       -0.0026134655 -0.031204393 -0.0053375354 -0.01872717
0003f0 b9 89 bb 3b 8c a8 16 3c 6c 51 72 bb de b6 cf bc
       0.005723205 0.009195458 -0.00369748 -0.025355753

out.bias f4 [10]
000000 9a 3c e3 bc 94 7b 7a 3d ed 3a c8 bc 13 6c 03 bd
       -0.027738858 0.06115301 -0.02444216 -0.03208549
000010 c6 44 2f b9 18 0a 62 3c 2d 55 82 39 41 0f 17 3d
       -0.0001671492 0.013796352 0.00024858993 0.03687978
000020 16 a2 3d bd 56 4b 9c bb
       -0.046297155 -0.004769723
